…
":"2022-04-09T23:11:52.892519Z","shell.execute_reply.started":"2022-04-09T23:11:52.580579Z","shell.execute_reply":"2022-04-09T23:11:52.891746Z"},"trusted":true},"execution_count":39,"outputs":[{"name":"stdout","text":"Model: \"vgg16\"\n_________________________________________________________________\nLayer (type)                 Output Shape              Param #   \n=================================================================\ninput_2 (InputLayer)         [(None, 50, 50, 3)]       0         \n_________________________________________________________________\nblock1_conv1 (Conv2D)        (None, 50, 50, 64)        1792      \n_________________________________________________________________\nblock1_conv2 (Conv2D)        (None, 50, 50, 64)        36928     \n_________________________________________________________________\nblock1_pool (MaxPooling2D)   (None, 25, 25, 64)        0         \n_________________________________________________________________\nblock2_conv1 (Conv2D)        (None, 25, 25, 128)       73856     \n_________________________________________________________________\nblock2_conv2 (Conv2D)        (None, 25, 25, 128)       147584    \n_________________________________________________________________\nblock2_pool (MaxPooling2D)   (None, 12, 12, 128)       0         \n_________________________________________________________________\nblock3_conv1 (Conv2D)        (None, 12, 12, 256)       295168    \n_________________________________________________________________\nblock3_conv2 (Conv2D)        (None, 12, 12, 256)       590080    \n_________________________________________________________________\nblock3_conv3 (Conv2D)        (None, 12, 12, 256)       590080    \n_________________________________________________________________\nblock3_pool (MaxPooling2D)   (None, 6, 6, 256)         0         \n_________________________________________________________________\nblock4_conv1 (Conv2D)        (None, 6, 6, 512)         1180160   \n_________________________________________________________________\nblock4_conv2 (Conv2D)        (None, 6, 6, 512)         2359808   \n_________________________________________________________________\nblock4_conv3 (Conv2D)        (None, 6, 6, 512)         2359808   \n_________________________________________________________________\nblock4_pool (MaxPooling2D)   (None, 3, 3, 512)         0         \n_________________________________________________________________\nblock5_conv1 (Conv2D)        (None, 3, 3, 512)         2359808   \n_________________________________________________________________\nblock5_conv2 (Conv2D)        (None, 3, 3, 512)         2359808   \n_________________________________________________________________\nblock5_conv3 (Conv2D)        (None, 3, 3, 512)         2359808   \n_________________________________________________________________\nblock5_pool (MaxPooling2D)   (None, 1, 1, 512)         0         \n=================================================================\nTotal params: 14,714,688\nTrainable params: 0\nNon-trainable params: 14,714,688\n_________________________________________________________________\n","output_type":"stream"}]},{"cell_type":"markdown","source":"****ANN Layer****","metadata":{}},{"cell_type":"code","source":"flatten_layer = layers.Flatten()\ndense_layer_1 
…
